…
2025-04-13 13:36:42 INFO     Starting new run: Commandline: ./f21_predict_unet_with_dense.py --limitsamplesize 200 --psbatchsize 1 --scale_y --runmode train_test --label with dense --t_int 50 --epochs 35 -p /user1/21cm_forest/21cmFAST_los/F21_noisy/ --input_points_to_use 2560. Parameters: epochs: 35, batch_size: 32, lr: 0.0001, kernel_sizes: [256, 256], dropout: 0.2, points: 2560, label=with dense
2025-04-13 13:36:42 INFO     Before scale train: [[ 0.04835174 -0.2       ]]
2025-04-13 13:36:42 INFO     After scale train: [[0.04835174 0.76      ]]
2025-04-13 13:36:42 INFO     Starting training. (104400, 2560),(104400, 2),(104400, 2560)
2025-04-13 13:36:43 INFO     Shape of inputs, outputs: torch.Size([104400, 1, 2560]), torch.Size([104400, 2560])
2025-04-13 13:36:43 INFO     Created model: UnetModel(
  (enc1): Sequential(
    (0): Conv1d(1, 64, kernel_size=(5,), stride=(1,), padding=(2,))
    (1): BatchNorm1d(64, eps=1e-05, momentum=0.1, affine=True, track_running_stats=True)
    (2): ReLU()
    (3): Dropout(p=0.2, inplace=False)
    (4): Conv1d(64, 64, kernel_size=(3,), stride=(1,), padding=(1,))
    (5): BatchNorm1d(64, eps=1e-05, momentum=0.1, affine=True, track_running_stats=True)
    (6): ReLU()
    (7): Dropout(p=0.2, inplace=False)
    (8): MaxPool1d(kernel_size=4, stride=4, padding=0, dilation=1, ceil_mode=False)
  )
  (enc2): Sequential(
    (0): Conv1d(64, 128, kernel_size=(5,), stride=(1,), padding=(2,))
    (1): BatchNorm1d(128, eps=1e-05, momentum=0.1, affine=True, track_running_stats=True)
    (2): ReLU()
    (3): Dropout(p=0.2, inplace=False)
    (4): Conv1d(128, 128, kernel_size=(3,), stride=(1,), padding=(1,))
    (5): BatchNorm1d(128, eps=1e-05, momentum=0.1, affine=True, track_running_stats=True)
    (6): ReLU()
    (7): Dropout(p=0.2, inplace=False)
    (8): MaxPool1d(kernel_size=4, stride=4, padding=0, dilation=1, ceil_mode=False)
  )
  (enc3): Sequential(
    (0): Conv1d(128, 256, kernel_size=(5,), stride=(1,), padding=(2,))
    (1): BatchNorm1d(256, eps=1e-05, momentum=0.1, affine=True, track_running_stats=True)
    (2): ReLU()
    (3): Dropout(p=0.2, inplace=False)
    (4): Conv1d(256, 256, kernel_size=(3,), stride=(1,), padding=(1,))
    (5): BatchNorm1d(256, eps=1e-05, momentum=0.1, affine=True, track_running_stats=True)
    (6): ReLU()
    (7): Dropout(p=0.2, inplace=False)
    (8): MaxPool1d(kernel_size=4, stride=4, padding=0, dilation=1, ceil_mode=False)
  )
  (enc4): Sequential(
    (0): Conv1d(256, 512, kernel_size=(5,), stride=(1,), padding=(2,))
    (1): BatchNorm1d(512, eps=1e-05, momentum=0.1, affine=True, track_running_stats=True)
    (2): ReLU()
    (3): Dropout(p=0.2, inplace=False)
    (4): Conv1d(512, 512, kernel_size=(3,), stride=(1,), padding=(1,))
    (5): BatchNorm1d(512, eps=1e-05, momentum=0.1, affine=True, track_running_stats=True)
    (6): ReLU()
    (7): Dropout(p=0.2, inplace=False)
    (8): MaxPool1d(kernel_size=4, stride=4, padding=0, dilation=1, ceil_mode=False)
  )
  (flatten): Flatten(start_dim=1, end_dim=-1)
  (fc1): Linear(in_features=5120, out_features=256, bias=True)
  (fc2): Linear(in_features=256, out_features=5120, bias=True)
  (unflatten): Unflatten(dim=1, unflattened_size=(512, 10))
  (dec0): Sequential(
    (0): ConvTranspose1d(1024, 256, kernel_size=(4,), stride=(4,))
    (1): BatchNorm1d(256, eps=1e-05, momentum=0.1, affine=True, track_running_stats=True)
    (2): ReLU()
    (3): Dropout(p=0.2, inplace=False)
  )
  (dec1): Sequential(
    (0): ConvTranspose1d(512, 128, kernel_size=(4,), stride=(4,))
    (1): BatchNorm1d(128, eps=1e-05, momentum=0.1, affine=True, track_running_stats=True)
    (2): ReLU()
    (3): Dropout(p=0.2, inplace=False)
  )
  (dec2): Sequential(
    (0): ConvTranspose1d(256, 64, kernel_size=(4,), stride=(4,))
    (1): BatchNorm1d(64, eps=1e-05, momentum=0.1, affine=True, track_running_stats=True)
    (2): ReLU()
    (3): Dropout(p=0.2, inplace=False)
  )
  (dec3): Sequential(
    (0): ConvTranspose1d(128, 32, kernel_size=(4,), stride=(4,))
    (1): BatchNorm1d(32, eps=1e-05, momentum=0.1, affine=True, track_running_stats=True)
    (2): ReLU()
    (3): Dropout(p=0.2, inplace=False)
  )
  (final): Sequential(
    (0): Conv1d(32, 1, kernel_size=(1,), stride=(1,))
    (1): Flatten(start_dim=1, end_dim=-1)
  )
)
2025-04-13 13:37:01 INFO     Shape of input_batch, output_batch: torch.Size([32, 1, 2560]), torch.Size([32, 2560])
2025-04-13 13:43:13 INFO     Epoch [1/35], Loss: 5062.96950666
2025-04-13 13:49:17 INFO     Epoch [2/35], Loss: 1147.18229366
2025-04-13 13:55:17 INFO     Epoch [3/35], Loss: 474.52277965
2025-04-13 14:01:20 INFO     Epoch [4/35], Loss: 135.58447927
…
